mlp_model.pth (torch, 134371 bytes, 8 tensors)

layers.0.weight f4 [30, 1029]
00000000: 625b eebd 5525 e83e 6058 23be 3544 753d
00000010: f24d 29bd e978 c0bd 89da c3bd ce8d 6e3d
00000020: 8e8d 2f3d d7be 1abe 5326 903d f165 d0bd
00000030: ae88 c93d 1653 9f3d e563 ff3c 2021 173e
00000040: ea9a 13be 1629 89bd 1aa1 d2bd ee60 93bd
00000050: 10af 713d 784b b03d 0e1a 5bbd b8d9 e0bd
00000060: 3cfc cfbd e4c1 3bbd ec61 e8bc 4790 a53d
00000070: 40e0 e63c 1a43 40bd 848e 86bd f2e2 06bc
00000080: bbb6 d73c bb1f 76bd 2621 73bc 3407 6bbe
00000090: f0b9 ffbc c213 67be 98cf 5fbe 5df7 6fbe
000000a0: fdbf 95bd 39af babd e63e 6ebc 3283 61be
000000b0: 0079 69be 250c 65be 3f59 4fbe 0609 69bc
000000c0: 2992 6e3c 90c0 d3bd d3a4 843d e818 71be
000000d0: 9a1c d7bd 829b 6ebe a12e 51be 6eb4 6dbe
000000e0: 1f6b 6dbe 28bb cc3c d65d 863d c7a2 57be
000000f0: 3d1e 52be e4ac f1bb 0233 71be d8fb 903d
00000100: b485 64be 498c 55bd 47a2 4cbb 446a 8b3d
00000110: d1a0 62be af6a 4abe 1a12 7bbe dfa8 7ebe
00000120: baf3 69be 8ca0 83be 6019 7fbe 1417 d6bd
00000130: 35d7 03bd 61f6 ba3d 0334 67be d962 bdbd
00000140: 237b 0abe 38a9 8dbc af98 75be a04e 3fbd
00000150: a730 55be a402 52be 44ac 233e c963 69be
00000160: 15c6 78be d4f7 78be 1e4a 80be 7d72 58be
00000170: 6217 69be d255 82be 926e fabd 3889 7ebe
00000180: 446d 75be 5e5b 80be c5cf 7bbe 36b8 d3bd
00000190: a6ca 4dbe a77e 80be abf6 343e f2c0 4fbe
000001a0: 68ff 62be 886a ffbd c357 78be ad16 70be
000001b0: 4e93 82be 7dff 5cbe 142b 66be 1228 13be
000001c0: 8ea1 81be b7c2 63be aa35 4dbe d525 60be
000001d0: 4d03 5ebe c094 82be 7b86 54be 591c 5bbe
000001e0: 449d 4fbe 38c1 2cbe e413 b3bd fda9 6abe
000001f0: 8dea 31be cb63 55be 7016 d8bc 0960 343d
00000200: 38de bdbd c68c 5dbe d3bc 51be b1c0 78be
00000210: 69f5 4bbe 3460 513d 5717 79be f0f5 80be
00000220: d548 64be 0840 6dbe f0ac 80be 1bce 13bc
00000230: c462 83be 8053 6cbe d1b3 55be 95ee 77be
00000240: 6a06 70be 85d9 5bbe ef1f 6cbe 055f 5abe
00000250: d966 70be da5a 83be 4531 65be d334 863c
00000260: a5e4 57be 9da2 61be e7f2 66be 09bf 65bd
00000270: 6eef 7cbe 50d9 7cbe 7104 903c 8a0a f8bb
00000280: 7526 66be 032e 52be 0748 58be 6dbe 69be
00000290: 6717 4ebe bd13 61be 268b 5ebe 0030 8b37
000002a0: d5df 70be 2271 93bc 6f9c 6cbe ae2a 3b3e
000002b0: 61bd 4fbb eb55 6abe df8e 7abe 2da7 77be
000002c0: ab96 79be 4239 63be a2db 5abe e433 16bc
000002d0: a22a 83be 9259 72be 319f 81be 8ee2 d83d
000002e0: de0a 60be 7297 7ebe 5cf7 80be c5d9 2fbb
000002f0: 8713 68be ec6c 85bd 685f 80be 7f7d 82be
00000300: a3b8 60be 0154 6bbe 537b 54be 4bc8 62be
00000310: 4bc0 54be 9a0a c5bc 3bde 7bbe 330a 57be
00000320: 0b81 82be a569 81be 355c 54be 4580 e9bd
00000330: b1c7 53be b17f 8abd 2607 03be c670 68be
00000340: e727 0b3e 9eed 68be f63b 86bd 4d80 83be
00000350: bb62 57be 1fce 0d3e 0753 6dbe 8adc cbbd
00000360: b15f 71be 8ba7 7dbe 3708 54be cd3c 76be
00000370: fe01 bd3d da89 83be e128 4abe 17f0 64be
00000380: 16a0 4dbe 7927 68be 57ef 4bbe 1812 47bc
00000390: 82b4 5dbe 3c1c 7bbe c978 80be bb83 51bd
000003a0: 11f6 b1bb 5e3a b7bc d150 24bd f314 64be
000003b0: 0b1b 4dbe c95f 84be 1456 133d 8514 84be
000003c0: f70f 60be 1582 6abe e78f 6ebe a995 58be
000003d0: 3bb3 6dbe 7b01 51be e291 68be f58f 953c
000003e0: 96b9 5fbe d635 41be 512d 55be 3972 6cbe
000003f0: e159 81be 13cd 01bd f344 84be b14b 79be
-0.11638524 0.45340982 -0.15951681 0.0598795 -0.0413341 -0.09398062 -0.09563167 0.058240704
0.042859606 -0.15111862 0.0703856 -0.10175694 0.09840523 0.07779519 0.031175563 0.1475873
-0.14414564 -0.0669729 -0.10284634 -0.07196222 0.059004843 0.086081445 -0.053491645 -0.109790266
-0.10155532 -0.045839205 -0.028367005 0.08084159 0.028183103 -0.046938993 -0.065701514 -0.008232819
0.02633225 -0.060088854 -0.014839446 -0.22951967 -0.031216592 -0.22566131 -0.21856534 -0.23434205
-0.073120095 -0.09115452 -0.014541363 -0.22022703 -0.22800064 -0.22367914 -0.20248888 -0.014223343
0.0145612145 -0.10339463 0.0647675 -0.23544657 -0.10503502 -0.23301509 -0.20427944 -0.2321336
-0.23185395 0.024991587 0.065608665 -0.21058188 -0.20519347 -0.0073753465 -0.23554614 0.070792854
-0.22316629 -0.05213574 -0.0031224655 0.06807378 -0.22131659 -0.19767259 -0.24518624 -0.24869107
-0.2284688 -0.25708425 -0.24912024 -0.104536206 -0.03218766 0.09129024 -0.22578435 -0.09247369
-0.13523535 -0.017292604 -0.23984025 -0.046705842 -0.2081934 -0.2050882 0.15983683 -0.22791971
-0.24294312 -0.24313289 -0.25056547 -0.21137424 -0.22762826 -0.254561 -0.12228121 -0.24857032
-0.23967463 -0.25069708 -0.24590977 -0.1033787 -0.20096835 -0.25096628 0.17672221 -0.20288447
-0.22167742 -0.12471491 -0.24252228 -0.2344615 -0.2550301 -0.21581836 -0.2247737 -0.14370754
-0.2531857 -0.22242247 -0.20040002 -0.21889432 -0.21680947 -0.25504112 -0.20754425 -0.21397533
-0.20274836 -0.16870582 -0.08744028 -0.22916408 -0.1737463 -0.20838849 -0.026377887 0.0440369
-0.092709005 -0.21635732 -0.20482187 -0.24292256 -0.19917835 0.051117137 -0.2432531 -0.25187635
-0.22293408 -0.23168957 -0.2513194 -0.009021307 -0.2566129 -0.23078728 -0.20869376 -0.24212106
-0.23439947 -0.21469696 -0.23059057 -0.2132531 -0.23476733 -0.25655252 -0.22382076 0.01638261
-0.21083315 -0.22034688 -0.22553597 -0.05609039 -0.2470071 -0.24692273 0.017580243 -0.0075696157
-0.22475608 -0.20525365 -0.21121226 -0.22826548 -0.20126115 -0.21980186 -0.21732768 1.6592443e-05
-0.23522885 -0.017998282 -0.2310655 0.18278 -0.0031698572 -0.22884338 -0.24468563 -0.24184866
-0.24373882 -0.22189811 -0.21372846 -0.009167645 -0.25618464 -0.23666981 -0.25316766 0.10590087
-0.21879146 -0.2486246 -0.2518872 -0.0026832682 -0.22663699 -0.06514916 -0.2507279 -0.2548637
-0.21945433 -0.22981264 -0.2075017 -0.22146718 -0.20776479 -0.024052907 -0.24596493 -0.20999984
-0.25489077 -0.25275913 -0.20738299 -0.114014186 -0.20681645 -0.067626365 -0.12795696 -0.2269927
0.1358944 -0.22746894 -0.065544054 -0.25683823 -0.21033756 0.1384816 -0.23176204 -0.09954174
-0.2357166 -0.24770944 -0.20706259 -0.24046631 0.092288956 -0.2569111 -0.19742157 -0.22357212
-0.20080599 -0.22671308 -0.1991552 -0.01215031 -0.2165089 -0.2452249 -0.25092152 -0.05115102
-0.0054309447 -0.022366699 -0.040116135 -0.22273616 -0.20029847 -0.25854328 0.035970762 -0.25796905
-0.2188109 -0.22901185 -0.23297082 -0.21150841 -0.23212902 -0.20410721 -0.227119 0.01825712
-0.21848139 -0.18868193 -0.20818068 -0.23090447 -0.25263885 -0.031689715 -0.25833854 -0.2434528

layers.0.bias f4 [30]
00000000: d090 673e 058a 2f3c 0e73 263e 7f5c 043e
00000010: 88de e43d afa9 4f3e 0a90 983d 2873 d63d
00000020: 07a8 0a3d 7de4 203d 0010 d73d 225a 563e
00000030: 542d 183e 26c5 3c3e ee35 003e 9ef3 473d
00000040: a438 c03d 7f5e 493d 6809 003e e8aa 34bb
00000050: 0c90 68bc 9672 043e 904f 263e 0b56 413e
00000060: 3377 c23d 2cf4 963d 9c1b f43d 6dc7 413e
00000070: c991 a13d ff19 1e3e
0.22613835 0.010714059 0.16254827 0.1292591 0.11175257 0.20279573 0.07449348 0.10471183
0.03385165 0.039280403 0.10501099 0.2093282 0.14861041 0.18434581 0.12520573 0.048816316
0.09385803 0.049162384 0.12503588 -0.0027567688 -0.0141945 0.12934336 0.16241288 0.18880479
0.09495392 0.07370791 0.119193286 0.18923731 0.078891344 0.15439604

layers.2.weight f4 [30, 30]
00000000: 8eee 2b3e 79bc cfbe b0be cd3e 27d2 983e
00000010: d146 ea3e a734 ff3e c407 a3be 972e a53e
00000020: ee70 b7be 0ac9 96be 1ed4 aa3d ef1c f83d
00000030: ebdd b53e 7b00 933d 77d1 0f3e 4f29 9dbe
00000040: 7205 ed3e d7ba adbe 47ca f43d 02f7 4cbe
00000050: 51b5 b1be 4874 d23e 69a5 38ba bcf0 77bb
00000060: 7e3f 933e b838 7d3e a30f 833e ba33 063e
00000070: 1bfe debd 6b19 303e 3489 223e e6a2 453e
00000080: 5021 1b3e 8ce9 963d f86d 183d c5e4 9b3e
00000090: cb26 c3bd 3e18 683e 3fdb dfbe 5f08 4fbd
000000a0: be05 1b3e af52 273e cb38 f0bd 91c8 b03d
000000b0: 6e7e 80bd 08e4 0abe f496 da3d 8302 b1be
000000c0: 1480 933e 5284 3dbd fa51 c9bd 7409 22bd
000000d0: 1fda bd3d bd39 043e e944 2d3e cdc2 5c3d
000000e0: 4fb4 5a3d ba81 8dbd c931 f53d 3fa8 dc3d
000000f0: 7eb9 cb3d 3a7b b1be b88c ac3e c51f c53e
00000100: 7e3d 033f bf07 f73e f9b3 d7be 82bb ce3e
00000110: 8547 78be 2a13 98be 40ac 943d 180f 0ebe
00000120: 5b74 d03e 4f4f 1fbd 10a5 dc3e 337f 1bbe
00000130: 28a2 393e 479b abbe e190 603e f7b0 97be
00000140: 04ef e4be f688 d33e 0428 44bd a289 683e
00000150: 2f45 283e 6e9e ad3e 440d 953e b4e4 073d
00000160: 0a28 85bd 65de 0d3e a152 7a3d 7fe7 8f3d
00000170: f010 a43d baf3 1c3d 3964 9abd 9be9 bcbd
00000180: 416f 0fbe bbc6 d6bd 4165 ba3e 581a 6b3e
00000190: fc60 2a3e 4ac4 b3be 889b 67bc fb62 573e
000001a0: 938b 4e3d 4194 643e 915b a2bd c117 753e
000001b0: cbdb 863b c3c4 3e3c a72b 993d f020 d43c
000001c0: e996 453e 9624 523e c031 ab3a 810d c0bd
000001d0: d029 1fbe 94de 723e ed8f 2b3e 7f58 4fbc
000001e0: 71d0 253e a769 a3bd 38eb f53c edb5 3c3e
000001f0: 6e75 1a3e e8c0 febd c4fa 60bd 56fb d33d
00000200: a121 f639 3c16 12bc b046 92be 5d58 03bf
00000210: 743f 593e ec3f 9b3b eb5b 8cbe 54ed 23be
00000220: 4186 eabe a12b 763d 5392 84be 88d6 2e3e
00000230: dacc 1e3e ab44 a3bd fb70 5a3e fde2 33be
00000240: a326 75be b043 30be 2df1 37be 3434 7d3d
00000250: 4c65 e5bb 766e 3c3e 12c4 8e3d dcce c1bb
00000260: 1120 c53e fc24 8a3d a4bc c8bc 000b 56bd
00000270: edf9 aebd 0e6a be3d 9357 cebd e478 dcbd
00000280: 3a6c 26be 4bf7 9bbd 1c78 9a3e d11c 9c3d
00000290: 54e8 fe3d f1ba ea3c a4af a1bd 6c50 4d3d
000002a0: 3140 2dbe 4cf1 e03d 6906 fd3c cee5 c53d
000002b0: 5e7f 61be f946 28be 8413 22be c22c 653c
000002c0: 1729 1dbb ab61 5e3e cc48 8f3e 978e 89be
000002d0: 1be5 88bd e045 113e ff5b 5b3e a23e 953e
000002e0: 03d1 7d3e 733c 63bb 229a 113e 5c48 253e
000002f0: 1bac 50be c680 96be 8560 f5bd 59bc 773e
00000300: e170 4d3e 3f1d e5bd 6d07 963d e3e3 eabb
00000310: ba80 d43c dfc2 23be f3e6 5a3e 6a71 363d
00000320: 62d5 5fbe 8d4a 22bc c40b eb3c 71e4 be3d
00000330: 4329 463e 146d e4bd 67cc d23c 02af 3a3e
00000340: 96a9 9f3d 547d ccbc 3d96 543e 0293 253b
00000350: 2d53 4a3e 6e42 f5b8 7008 63be 3018 db3d
00000360: 0be9 babd 4628 353e a462 ecbd cefa d3bd
00000370: c616 49bd bcfe 603c 5224 a6bc 0468 30bd
00000380: 3747 543d 1b0f 5cbd 6d3f 40bc a0ea c2be
00000390: 3ca1 893d c960 213e 9080 cf3e 9822 243d
000003a0: 7dab d33d aff2 173e c62c 60be 3cfa 30be
000003b0: b8b9 a43e 81c9 5e3b 29e3 36bd f569 9bbe
000003c0: 5a34 823e e448 53bc 634d c1be f525 0e3c
000003d0: edb5 0fbe c6ee 98bc df52 2dbe 8cef 763d
000003e0: b821 113c 1387 6b3d cfd1 f73c 086d 713e
000003f0: c217 4c3d 4ff4 373e e70c 27be a5c8 6abe
0.1679022 -0.4057348 0.40184546 0.29847834 0.45757154 0.49844858 -0.31841862 0.32262108
-0.35828346 -0.29450256 0.083412394 0.12114894 0.35520872 0.07177826 0.14044748 -0.30695578
0.46293217 -0.3393161 0.11952644 -0.20016101 -0.34708646 0.4110434 -0.0007043691 -0.0037832698
0.28759378 0.24728668 0.25597867 0.1310567 -0.108883105 0.17197196 0.15872651 0.19300422
0.15149426 0.07368764 0.03721425 0.30447975 -0.095288835 0.22665498 -0.4372196 -0.050545093
0.15138909 0.16340135 -0.117295824 0.08632005 -0.062741145 -0.1356355 0.10673323 -0.3457223
0.28808653 -0.04626877 -0.09830089 -0.039559796 0.09270119 0.1291265 0.16920818 0.053896714
0.053394612 -0.06909509 0.119723864 0.10774278 0.09947489 -0.34664327 0.3370111 0.385008
0.51265705 0.48248097 -0.42129496 0.40377432 -0.24246033 -0.2970212 0.072594166 -0.13872945
0.40713772 -0.038893994 0.43094683 -0.15185241 0.18128264 -0.33516905 0.21930267 -0.296272
-0.44713604 0.4131543 -0.047889724 0.22708753 0.16432641 0.33909935 0.29111683 0.033177093
-0.065017775 0.13854368 0.061113957 0.07026576 0.08011043 0.038318373 -0.07538647 -0.09224244
-0.14007284 -0.104871236 0.36405376 0.22959268 0.16638559 -0.35110694 -0.014136203 0.21033852
0.050426077 0.2232218 -0.07927621 0.23934843 0.004115557 0.011643591 0.07479029 0.025894612
0.19295849 0.20521769 0.0013061091 -0.09377576 -0.15543294 0.2371772 0.16754122 -0.012655376
0.16192795 -0.07979136 0.030019388 0.18428774 0.15083858 -0.12439138 -0.05492665 0.10350673
0.00046945832 -0.008916434 -0.28569555 -0.51306707 0.21215612 0.0047378447 -0.27413878 -0.16008502
-0.45805553 0.0601002 -0.25892887 0.17074025 0.15507832 -0.07972082 0.21332161 -0.17567058
-0.2394052 -0.1721332 -0.17963095 0.061817363 -0.007000601 0.18401513 0.06970991 -0.005914552
0.38501027 0.067453355 -0.024504013 -0.052256584 -0.08543763 0.09297572 -0.10075297 -0.107652456
-0.16252223 -0.07615527 0.3016976 0.07622684 0.12446657 0.028653594 -0.07894829 0.050125524
-0.16919018 0.10983524 0.030886846 0.096629724 -0.22021243 -0.16433324 -0.15827757 0.013987722
-0.002398079 0.21716945 0.27985227 -0.268666 -0.066843234 0.14186811 0.21421812 0.29149348
0.24786763 -0.0034673482 0.14218953 0.16140884 -0.20378153 -0.2939512 -0.119813 0.24192943
0.20062591 -0.11187219 0.07325635 -0.0071682795 0.025940288 -0.15992306 0.21377163 0.044541754
-0.21858743 -0.00990547 0.028692134 0.093209155 0.19351678 -0.111536175 0.025732232 0.18230823
0.07796018 -0.024962105 0.20760436 0.0025264625 0.19758292 -0.00011694884 -0.22171187 0.10697973
-0.09126481 0.17691144 -0.11542252 -0.103505716 -0.049093984 0.013732608 -0.02028099 -0.043067947
0.05182573 -0.053725343 -0.011733872 -0.3806963 0.06720206 0.15759577 0.40527773 0.040072054
0.10335443 0.1483867 -0.2189208 -0.17282957 0.32172942 0.0033994617 -0.04465023 -0.30354276
0.25430566 -0.012895796 -0.37754354 0.008676042 -0.14034243 -0.018668544 -0.16926144 0.060287043
0.008858137 0.057501864 0.030251412 0.23576748 0.049827345 0.1796429 -0.16313516 -0.22928102

layers.2.bias f4 [30]
00000000: 1ccb 663e b343 a53d ca1c a03d 409a 043e
00000010: 8c0b 433d 0324 09be 4a2f 0b3e 1133 e53c
00000020: 2bce 8fbe 66bd 083d d303 543e b16f d83c
00000030: e8f1 03be c292 b73e 2c3d 8d3e b121 573e
00000040: 59ad 92bd 9f80 f53e 624a 41bd 045e 4c3c
00000050: 7bc7 163e bee3 543d bb18 a1be 1cb6 863e
00000060: 1237 ba3e 3afc 613d 8161 f9bd dc99 2e3e
00000070: 734b f63c 811c 113e
0.22538418 0.08069553 0.07817991 0.12949467 0.047618434 -0.13392644 0.13592258 0.027978452
-0.2808698 0.03338375 0.20704584 0.026420446 -0.12885249 0.35854155 0.27585733 0.21008946
-0.0716197 0.47949693 -0.047190078 0.012473587 0.14724533 0.051975004 -0.3146418 0.26310813
0.3637014 0.055172183 -0.121768005 0.1705088 0.030065274 0.1417103

layers.4.weight f4 [30, 30]
00000000: 900e e8bd 1ec1 613e 1f72 f3bc a393 4abe
00000010: 0fbc 653b 2298 613e cf7f 373e 3b46 0bbd
00000020: 8df8 413e 3527 2d3e 1d80 553e e56f 2bbd
00000030: c96c 79be a5c9 a33b 839e 1c3d 8666 b2be
00000040: 01de 1abc d815 623d 0e96 2b3d 7fdd 5cbd
00000050: 1245 c33d 1c72 c0bd 5605 923d 2f36 1d3e
00000060: ff6f 6cbe 7a79 ae3e 1ee8 86bd 0e79 7abe
00000070: f15d 6abe 5212 273e cd61 68be d53a 77be
00000080: bd3d 3a3d b4b1 773e ff1e e4bc 15eb 403e
00000090: 20e1 c5be cffe e13c 49e0 31be 9a83 bb3d
000000a0: 7550 99bd 591d 9ebe 1e0e 8f3d a555 79bc
000000b0: 61b6 143e eb8b b2be aa65 183e 3df4 8d3d
000000c0: 0f51 693d f9a2 57be 3da8 ffbd b0e0 0f3e
000000d0: 6f85 35be 9c81 78bd abf8 9abd 0bbd 2a3e
000000e0: 8a98 ccbd 31e1 043d e11d 243d 087d 29be
000000f0: b2bc 553e 5db9 dabd 8d9a c6bd 65c4 b6bd
00000100: 6132 723e 76bd 58bd 63fb 29bd 737c 71bd
00000110: 87b0 293c 5a1a e93b 70d3 463e 53da 563e
00000120: 2e7f 2dbe 838b e23d 71b8 483e 37c9 9abe
00000130: 95f3 4ebe 3307 373e a140 b4bd 422f 8c3a
00000140: a09c beba 28db 833e 4255 673e 5de3 18bd
00000150: 8747 7dbe 7ee1 8e3e 73ea a43e ac10 f5bd
00000160: 5997 89be 4397 4f3d 67a4 8abe cbc3 38be
00000170: 53e7 acbe 6e26 d13d b401 093e 756b 713e
00000180: bdf8 1e3d 1357 523e 45e2 913e e91f 9f3c
00000190: ee57 a43e 2e46 bcbe 9a58 863e 5a1b 73bc
000001a0: 59a4 003e 80c9 773e 4b9d 483e 36db 193e
000001b0: fad3 14bf dfad ebbb 5e97 a53e 6ee2 163c
000001c0: 2dd3 6cbd 783c 763e e999 b93e d1d1 d83d
000001d0: ac46 dfbd fa8f 043f 5e23 1f3e 46ba 163e
000001e0: bbfd 8ebe d48b 65be ba80 7dbe b688 a93e
000001f0: c8d6 39be edbb f7bd cc55 2fbe 9c93 24be
00000200: 13f0 2dbe d2e9 82bc 349c d3bd 1c8f 6dbe
00000210: 1271 3a3b c66c 593e 3263 bcbc e545 933e
00000220: a320 e7bd 662f 853e 9a61 b6be baad 8dbd
00000230: caaa cf3d 7590 01be 6d8e ab3e aca2 693e
00000240: 11f8 c13e a935 a33b c7fd 4a3e 2087 893e
00000250: 267a 8a3e 71e9 2c3e 06a5 d1bc ba3d f7bd
00000260: 2324 6bbd 22da 2bbe 2f5e 8ebb e6ed a5bd
00000270: 8f18 843d 3250 57be b351 23be 684d 8abd
00000280: be06 403d 59df 1bbe 3bb2 cd3d 2264 fabd
00000290: a681 3c3d 6733 37be ede6 853d fda0 1abe
000002a0: 26f3 4fbe 9794 52be 1646 6f3c c663 00bd
000002b0: 0ebb 783d 7c5d 2dbe 3eb3 0abd 4a9e 813d
000002c0: 38c8 953c 5c57 533d 69b1 64bd 3243 48be
000002d0: 3ef9 01bf da99 75be 6fec 6bbf 7677 383e
000002e0: 057e 60bd 48a7 933d df54 95bd df88 0f3e
000002f0: 885a 263e 21ca b4be c7d7 463d deef 13bf
00000300: 23d5 943d 1a9f 0e3e 9883 80be dfb1 893d
00000310: af9d d3be 94c0 813e 4cc6 8ebf cfde 99be
00000320: 9951 053e 7985 c3bd e8da 80bd a7dc adbd
00000330: 51c2 9b3e 7d1f 87bd e118 163d d24d bb3e
00000340: 265d 6a3e ce67 f83d e457 a8be ae4e b53d
00000350: 08e3 b8be 738d 783e 588a 78be 579a 053e
00000360: ac82 8a3c 7d2e 91bd 43ca c5bc 79d3 a8be
00000370: 3809 4bbe 712d afbe 835c b2bd b78c 22bd
00000380: bf93 72be 982b 663e 1f09 0dbd 994a 503d
00000390: 7c03 abbe 29eb 0c3e 5f84 20bd f6cc 2ebe
000003a0: bc12 6bbe 361c 103e c162 f8bd bfa7 a43d
000003b0: ce9e a4bd e34a a13d 4786 803d 5588 323e
000003c0: 0250 443d 5258 72bc 7d63 a4bd 1ee2 ac3d
000003d0: 0018 d5bc 2ac0 48be dacc 14be 7360 ecbc
000003e0: 2a36 323e f052 52be 2dd9 f1bc 9907 03be
000003f0: 56ae 81be faea 043e 6d99 22be b206 933e
-0.113309026 0.22046325 -0.029717503 -0.19782881 0.0035054719 0.2203069 0.17919849 -0.034002524
0.18942471 0.16909488 0.20849653 -0.041854758 -0.24357904 0.004998403 0.038237106 -0.34843844
-0.009452344 0.055196613 0.04189115 -0.053922173 0.095346585 -0.09396765 0.07129924 0.153527
-0.23089598 0.34077054 -0.065872416 -0.24460241 -0.22887398 0.16315582 -0.22693558 -0.24143536
0.045469034 0.24188882 -0.027846811 0.18839677 -0.3864832 0.027587323 -0.17370714 0.091559604
-0.07486049 -0.30881765 0.069851145 -0.015218173 0.14522697 -0.34872374 0.14882532 0.069313504
0.05696207 -0.21058263 -0.12483261 0.14050555 -0.17726682 -0.06067048 -0.07566961 0.16673677
-0.09990032 0.03244132 0.040067557 -0.16551602 0.20872763 -0.106798865 -0.09697447 -0.08924178
0.2365203 -0.05291506 -0.041499507 -0.058956575 0.010357029 0.007113737 0.19416595 0.20981722
-0.16943046 0.11061766 0.19601609 -0.3023164 -0.20210107 0.1787384 -0.088013895 0.0010695236
-0.0014542527 0.2575314 0.22591117 -0.037326206 -0.24734317 0.27906412 0.3221012 -0.119660705
-0.26873282 0.050681364 -0.27078554 -0.18043439 -0.33770236 0.10212408 0.13379556 0.23576148
0.038811434 0.20541029 0.28492942 0.019424396 0.32098335 -0.36772293 0.26239473 -0.014838064
0.12562694 0.2419796 0.19591253 0.15025029 -0.5813595 -0.007192358 0.32342046 0.0092092585
-0.05781858 0.24046504 0.36250237 0.10586894 -0.109021515 0.5178219 0.15540835 0.14719495
-0.27927956 -0.22416621 -0.24756137 0.33112115 -0.18148339 -0.12096391 -0.17122573 -0.16071934
-0.16986112 -0.015980635 -0.10332528 -0.23199123 0.0028448743 0.212329 -0.022996519 0.28764263
-0.11285522 0.26012725 -0.3562134 -0.06917901 0.10139997 -0.12652762 0.335071 0.2281596
0.37884572 0.004980762 0.19823371 0.26860905 0.27046317 0.16885926 -0.025591385 -0.1207232
-0.05740751 -0.1678243 -0.0043447237 -0.08102016 0.06449997 -0.21026686 -0.15949135 -0.06753045
0.04688143 -0.15221919 0.100437604 -0.1222613 0.04602208 -0.17890702 0.06538186 -0.15100475
-0.20307598 -0.20564495 0.014604112 -0.03134515 0.060725264 -0.16930193 -0.033862345 0.06329019
0.018283948 0.051596984 -0.055833254 -0.19556883 -0.5077094 -0.23984471 -0.92157644 0.1801432
-0.05480768 0.07209641 -0.072915785 0.14017056 0.16245472 -0.35310462 0.048545625 -0.57787883
0.07267215 0.1392788 -0.25100398 0.06723379 -0.4133124 0.25342238 -1.1154265 -0.30052802
0.13019408 -0.09546942 -0.06291753 -0.08489352 0.3042169 -0.06597803 0.03664482 0.3658281
0.22887096 0.12129174 -0.32879555 0.088528976 -0.3611071 0.24272709 -0.24271524 0.13047157
0.016908012 -0.07088945 -0.024144297 -0.3297384 -0.19827735 -0.34214357 -0.087090515 -0.039684977
-0.23689173 0.22477567 -0.034432527 0.050852392 -0.33401096 0.13761581 -0.03918874 -0.17070374
-0.22956365 0.14073262 -0.12128211 0.080398075 -0.08038102 0.07875612 0.06275611 0.17434819
0.047927864 -0.014791565 -0.080267884 0.08441566 -0.02601242 -0.19604555 -0.1453127 -0.028854584
0.17403474 -0.2053945 -0.029522503 -0.12795867 -0.2532832 0.12980261 -0.1587884 0.28716046

layers.4.bias f4 [30]
00000000: c048 e83d fffd 9c3d b0e9 823e 5f4c 193e
00000010: 1378 a93d 1578 fa3d 7e0e f63c fed7 4e3d
00000020: 161a 7b3d c703 023c 4ac8 d33c df48 2b3d
00000030: 30da b3bd 2ea4 0abd a777 a7bd f758 c43c
00000040: cfe8 473e 74fc fabd 6ee5 8c3c e77d 9d3d
00000050: 0e80 5e3e 1131 2d3b d609 0d3d f3aa 453d
00000060: fdb5 98bd f53f 9a3e 5e56 123e c310 833e
00000070: 6fa1 39bc 77af 01be
0.11342001 0.076656334 0.25568914 0.1497054 0.082748555 0.12229935 0.030036207 0.050498955
0.061304174 0.007935471 0.025852341 0.041817542 -0.0878185 -0.03384798 -0.08177119 0.023968203
0.19522403 -0.12255183 0.017199244 0.076900296 0.21728536 0.002642695 0.03443321 0.048258733
-0.074565865 0.3012692 0.14290759 0.25598726 -0.011329993 -0.12664591

layers.6.weight f4 [6, 30]
00000000: 654f a7be 170a 1bbe b2b6 ccbe 4597 b9bf
00000010: 1910 82bf cd08 1a3e ebcf 61bf 4328 aa3d
00000020: b748 68bf fd0f ffbe dc0c 08bf caf8 bbbe
00000030: e385 49be 2bcd e9be 7923 e0be d065 84bf
00000040: 3ad9 d3be 7b62 953d 8bb3 1dbe 00fe d2bf
00000050: bddc 2abe d82a 51bf 1a08 80be 34a4 01be
00000060: 2de7 8dbe b073 b4be 8be3 1fc0 fca5 b4be
00000070: 01c1 0ebe 0438 a6bc 85cd 9cbc 7022 f63d
00000080: 8537 ab3d e0cc 653e 94b0 3a3e 6658 9bbc
00000090: af58 c33e b9e3 f33d 9716 fcbd 39ef a4bd
000000a0: 850b ea3e 187c 05be 2ebf a83d 1623 843d
000000b0: e1ad b1bd e80c a3be df22 f6bd 0aa1 34be
000000c0: 36b8 c9bd 0a84 f53d 6c27 41be 6421 0d3e
000000d0: 8f52 96be 339c 243f 143d e93e 44b0 80bd
000000e0: 52ed e73e 6d97 bf3e 77a9 83be 4f71 febd
000000f0: 2476 3fbc 1708 85bc ad5c 29be 6666 1b3e
00000100: e10c aabd 540d 53bd e89a bf3d d1d1 1f3e
00000110: 388e 1ebb 1981 583d 0039 903e def8 2dbb
00000120: 48e8 703e b575 283e 6743 633e 7ed7 aebd
00000130: c48c 11be 36ac 833d 5952 7c3e 7768 3a3e
00000140: 0647 c43d e318 7cbe 05b3 bcbd 04e4 803e
00000150: e8dc 793e 8668 16be 07bc c6bc 0ece e23d
00000160: ab32 b0bd ac65 bdbd f630 65be 382f 12be
00000170: e8a9 aebe 23b8 413b 7325 3d3e 4c19 0bbe
00000180: 80ed a5bc 88d5 053e e6af 0c3e 6c8f 4f3c
00000190: ee09 3ebe 6d62 08be 7f12 babd bacf 013e
000001a0: a58c fc3d 8b3f 6a3d 62ec 3e3d 9458 17be
000001b0: 4a79 7f3e b167 163e b219 c9bc c4a5 94bd
000001c0: bfef 133d 6cc0 45bf cdcd 023d 8d86 053e
000001d0: cac5 233e f6b2 97be e210 173e ff1b 6cbd
000001e0: ef48 3ebd 5f03 87be df3e 4bbe beae 3b3e
000001f0: 1d6e 383e def2 98bd 579e 3bbf 768b 9bbe
00000200: 547d b33e 35bb 233e a0ed c2be aefe 5e3d
00000210: 9bec e23c 4627 213e a3ee 393d e624 0fba
00000220: 4013 2f3e f85f 07be 3cdd 9cbc f592 e23d
00000230: 1ca3 793e 2747 853e ff5c 343e 4262 efbe
00000240: 1ddd 8fbf 51f0 513e ef8d 1abf f693 57be
00000250: 7458 38be eeae 083e 4f17 ae3c 9b76 55be
00000260: 7308 bb3d 7eae 1bbf a484 39bf 93a5 09be
00000270: c971 a9be 6cd0 b8be e7ba 2bbf ad64 03bd
00000280: 2b80 9fbd bb25 383e 0890 dcbe 9a2a ef3d
00000290: a71c f83d dcf2 8b3d dfd7 133e 7c6c e93d
000002a0: 35ba b1bd 80d7 87bf e7f2 6c3e c893 a43e
000002b0: f618 c8bd 6eaa 30be 8493 86be 4e69 db3d
000002c0: 5f11 08bf 79fc cf3d 1e6c e73e 81cc 93bd
-0.3267776 -0.15140568 -0.39983135 -1.4499289 -1.0161163 0.1504242 -0.8820788 0.083084606
-0.90735954 -0.49816886 -0.5314462 -0.36713248 -0.1967998 -0.45664343 -0.43777063 -1.0343571
-0.41376668 0.07294174 -0.15400521 -1.6483765 -0.16685767 -0.81706 -0.2500618 -0.12660295
-0.27715436 -0.35244513 -2.4982631 -0.35282886 -0.13940813 -0.020290382 -0.019140968 0.12018287
0.08360199 0.22441435 0.18231422 -0.01896305 0.38153598 0.11908669 -0.12308996 -0.080534406
0.45711914 -0.1303562 0.0823959 0.064520046 -0.08675743 -0.31845784 -0.1201837 -0.17639557
-0.098495886 0.11988075 -0.18862695 0.13782269 -0.29359862 0.6430084 0.4555441 -0.0628362
0.4529825 0.37420216 -0.2571523 -0.12423956 -0.011685882 -0.01623921 -0.16539259 0.1517578
-0.08303238 -0.051526383 0.09355718 0.15607382 -0.0024193656 0.052857492 0.28168488 -0.0026546041
0.23526108 0.16451152 0.2219368 -0.085371956 -0.14213854 0.06429331 0.24640788 0.18203913
0.09583859 -0.24618869 -0.09213833 0.25173962 0.24400675 -0.1468831 -0.02425958 0.11074458
-0.08603414 -0.09247908 -0.22381958 -0.14275825 -0.34114003 0.0029559217 0.18471317 -0.13583869
-0.02025485 0.13069737 0.13738975 0.012668472 -0.18558475 -0.13318796 -0.09085559 0.12676898
0.12331513 0.057189506 0.04661215 -0.14779884 0.24948612 0.14687993 -0.024548385 -0.0725818
0.03611731 -0.7724674 0.03193455 0.13039608 0.1599342 -0.29628724 0.14752534 -0.057643887
-0.046456274 -0.2636976 -0.19848202 0.18328378 0.18010755 -0.07468198 -0.7328848 -0.30379838
0.35056555 0.15989383 -0.38071918 0.0544421 0.027700713 0.15737638 0.045393597 -0.00054605154
0.17097187 -0.13220203 -0.019148462 0.11063186 0.24378628 0.26030847 0.176136 -0.46754652
-1.1239353 0.2050183 -0.60372823 -0.21052536 -0.18002492 0.1334798 0.021251349 -0.20846026
0.09132471 -0.6081313 -0.7246802 -0.13442068 -0.33094624 -0.36096513 -0.67082065 -0.032078434
-0.07788118 0.17983143 -0.43078637 0.116780475 0.1211484 0.06833431 0.14437817 0.11397645
-0.08678094 -1.061264 0.23139535 0.32143998 -0.09770386 -0.17252514 -0.2628442 0.10713445
-0.53151506 0.10155577 0.45199674 -0.072167404

layers.6.bias f4 [6]
00000000: ae7d 62bc de49 ea3d edc8 523c 04f2 c83d
00000010: e418 513e 36b9 a73d
-0.01382391 0.1143987 0.012865287 0.09811786 0.20419651 0.08189623
